model_weights/dcgan_disc.pt (torch, 42431 bytes, 13 tensors)

disc.0.0.weight f4 [16, 1, 4, 4]
000000 e3 72 6b 3c 2d 36 43 3d e0 9e 06 bd 73 ac 06 b9
       0.014370653 0.047659088 -0.03286636 -0.00012843478
000010 f9 2b a7 3b 1b 18 32 bc b5 bd d3 3a c7 aa 3b bb
       0.0051016775 -0.010870005 0.001615456 -0.0028635727
000020 34 4e 9e 39 31 4c 9d bb e9 8e 37 3c b2 2d 9d 3a
       0.00030194374 -0.0048003425 0.011203506 0.0011991768
000030 e5 04 1c 3c 39 47 14 3c 39 d6 e4 ba 07 c8 c8 3b
       0.009522651 0.009050184 -0.0017458863 0.0061273607
000040 02 b3 2e 3d f1 4b c7 3c b5 c8 4d 3c 76 0c 83 3c
       0.042651184 0.024328204 0.012560059 0.015997153
000050 c7 64 bc 3c b4 94 f9 3d 42 5c 9b 3b 10 c7 cb 3b
       0.022997273 0.12186566 0.0047412226 0.0062187985
000060 80 f6 53 3d 34 40 7d 3c a7 51 98 3d 70 7a 1c 3d
       0.051748753 0.015457202 0.07437449 0.038202703
000070 2d 34 87 bc 7d 0b 55 3c 8e 38 41 3d 99 62 50 3d
       -0.016504372 0.013003227 0.047173075 0.05087528
000080 95 ff 3a 3c 54 e6 45 3d 63 06 23 bd 9d 46 9d bc
       0.011413475 0.04831536 -0.039801013 -0.01919871
000090 3a 60 56 3a d6 a3 b3 3c 68 a9 03 bd 2a 84 0d bb
       0.0008177791 0.021928709 -0.03214398 -0.0021593668
0000a0 03 24 95 bd 0f b3 e0 3c 88 3b 20 bd 23 ca 77 3d
       -0.07282259 0.027429132 -0.039119273 0.060495507
0000b0 a2 76 5a bd c3 dc 32 3d 7f 5c 26 bd e1 ef 72 3d
       -0.053335793 0.043667566 -0.040615555 0.059310798
0000c0 e3 46 69 bd 6c 5f 13 bd 20 b9 3f bd 45 cb 8f bc
       -0.05695237 -0.035979673 -0.04680741 -0.017552981
0000d0 8c dd 82 bd e6 1b 97 bd 49 be 8d bc b1 e9 49 39
       -0.06389913 -0.07378368 -0.01730265 0.0001925591
0000e0 85 3c 4a 3c e4 16 92 3c 79 7a c6 3c 88 93 b8 3c
       0.012343531 0.01783318 0.024228321 0.022531286
0000f0 72 fe 03 3d 96 2e 2e 3d 72 10 06 3d 03 0b bb 3c
       0.03222508 0.042524897 0.032730527 0.0228324
000100 99 0e 98 bb bb 60 f3 3b 9b 80 aa 3d 31 28 31 bd
       -0.004640412 0.0074273027 0.08325311 -0.04325122
000110 d4 2e b1 bb b8 c8 86 3d 07 8e 04 bb b3 f4 81 3c
       -0.0054071937 0.06581253 -0.0020226256 0.015863752
000120 e6 61 93 3b a2 4e b8 bc 3d 40 3d 39 dd 5f 04 bc
       0.0044977544 -0.022498433 0.00018048375 -0.008079496
000130 21 21 d0 bb 16 de 54 3c e0 c7 20 bc b8 5d ce 3b
       -0.0063516055 0.012992403 -0.009813279 0.0062977932
000140 a8 5b 8a bc 76 a3 05 3c b5 fd 96 3b f3 38 61 bb
       -0.016889408 0.008156648 0.004607881 -0.003436622
000150 42 7b 28 bc c5 3e 46 bd bc e8 6f bd bf 9b a8 3c
       -0.010283293 -0.048399705 -0.058571562 0.020582078
000160 cd 2d 6c 3d bd 63 16 3d e8 81 40 bd 32 a5 c5 3c
       0.057660867 0.03671621 -0.04699889 0.024126623
000170 83 95 64 3d ae ab 6e 3d aa c5 dc bc 50 c3 c3 3a
       0.055806648 0.058269195 -0.026949722 0.0014935527
000180 79 f1 a6 bc ce b8 0a 3d 0e 3e 0e 3d 9d 79 4a 3c
       -0.020378815 0.03386765 0.03472715 0.012358096
000190 1d 2e 33 3d 2f 36 71 3d cc 01 4b 3c 15 bf d5 bb
       0.04374515 0.058889564 0.012390565 -0.006523023
0001a0 0c b5 73 3d c0 b7 2a 3d 3b cf 84 bd 42 df fb bc
       0.05949883 0.041679144 -0.064848386 -0.030746106
0001b0 ee 72 8b 3c 17 0e 2a bd f9 c6 47 bd 46 3e a2 bb
       0.017022576 -0.041517343 -0.04877374 -0.004951271
0001c0 a8 f4 0f 3c 96 b4 d5 3b 46 e5 4e bc ee 9d aa 3a
       0.008786358 0.0065217717 -0.012627905 0.0013017037
0001d0 1f 84 55 bd 01 ac ec 3c e4 e5 ea 3c 0e ec ed 3b
       -0.052127954 0.028890612 0.028674074 0.007260806
0001e0 12 9c 05 3c 70 36 99 bd 57 22 1e bc ff 32 75 bc
       0.008154886 -0.07481086 -0.009651742 -0.014965772
0001f0 6e 3f a1 3c af ed 81 3b 85 6c f6 3b 4d d6 ab bb
       0.019683566 0.0039651017 0.0075202608 -0.0052440525
000200 60 40 a4 bc c5 90 cf ba 2c 86 bb bb 20 13 2f bd
       -0.020050228 -0.0015835991 -0.0057227816 -0.04274285
000210 1f 95 36 3d 02 09 a8 bc cc 19 eb bc a6 36 8e bd
       0.044575807 -0.020512108 -0.028698824 -0.06944017
000220 0a a4 ca bc 4d e6 ba 3c a5 c3 9f bd 0a 73 9e bd
       -0.024736423 0.022814894 -0.07800988 -0.07736786
000230 0b 4e d0 3c 5e b6 30 bd 60 86 b9 bd d3 84 b1 bb
       0.025427839 -0.04314267 -0.09058833 -0.005417445
000240 46 05 9f 3b a7 59 01 3d 63 e6 2a bb ec d4 2e bc
       0.0048529236 0.03157964 -0.0026077263 -0.010670882
000250 4e ce 10 3c c5 34 c3 bc b7 ce b5 bc 43 98 79 bc
       0.008838249 -0.023828873 -0.022193296 -0.015234056
000260 a0 a2 bf bd ce 08 17 be 0b 5a 76 bd 73 80 ff bc
       -0.0935719 -0.14749452 -0.060144465 -0.031189179
000270 54 e9 9e bc 84 4d 20 bd 51 f8 5d bc 17 b2 92 bc
       -0.019398369 -0.039136425 -0.013547973 -0.017907185
000280 ad db 28 3d 50 e5 dd 3c 84 9b 25 bd 48 67 62 bc
       0.041225124 0.027086884 -0.040431514 -0.0138185695
000290 f4 d4 23 3d d7 b2 cd bc 9e df 80 bd 99 ad 6f 3c
       0.03999801 -0.025109692 -0.062926516 0.014628791
0002a0 fe c6 98 3d 8e 5c 8d 3b b0 5d 9a bd 6e 65 09 bc
       0.0745983 0.004314012 -0.07537401 -0.008385999
0002b0 37 61 39 3d b3 2e ff 3b 64 78 ef bc 72 59 06 bc
       0.045258727 0.0077875494 -0.029232211 -0.008200036
0002c0 a4 5f a3 3c 00 e8 86 3c 05 e6 c4 bc 36 85 c8 bc
       0.019943066 0.016468048 -0.024035463 -0.024477582
0002d0 39 51 ae bb 1a c9 c3 3d fb 41 9f 3d 0a b1 9f 3c
       -0.005319741 0.095598415 0.07776257 0.019493598
0002e0 88 73 f5 bc b6 a3 ef bc f6 85 62 3c 73 54 e8 3c
       -0.029962316 -0.029252868 0.013825884 0.028360581
0002f0 8a 6f f4 bc 01 87 e5 bc 5f ae c7 bc 05 d8 3c 3b
       -0.029838342 -0.028018476 -0.024375139 0.002881528
000300 01 42 c6 bc 04 31 20 bd ae ce d7 bb 62 80 ef bc
       -0.024201395 -0.039109245 -0.0065859174 -0.029236022
000310 fe 4a 8a bc da 28 64 3d eb ed 4f 3d 45 9e 56 bc
       -0.016881462 0.05570302 0.050764006 -0.013099258
000320 3a aa 04 3d 29 42 98 3d 83 f5 de 3c db e2 01 bd
       0.032388903 0.07434494 0.027216678 -0.031710487
000330 1b c1 9c 3b 11 de 20 bc e0 d5 b0 bc fe 37 3f bc
       0.004783762 -0.00981857 -0.021586359 -0.011671064
000340 a9 f6 d7 ba b9 e9 75 3a 12 ab 9c b9 15 30 42 3a
       -0.0016476709 0.00093808357 -0.00029882096 0.00074076775
000350 f4 03 73 3b 42 46 4d 3b 00 e4 2e 39 8b cc 8a 39
       0.0037081214 0.0031322394 0.0001667887 0.00026473808
000360 f8 ef fe 3a fb d1 0b 3b 48 1f dc ba d9 47 23 ba
       0.0019450178 0.0021334875 -0.001679399 -0.00062286627
000370 44 cf a0 b9 3e 23 7c ba 24 e4 34 3a 77 91 a2 3a
       -0.00030672003 -0.00096182886 0.00069004507 0.0012402971
000380 74 8f 7e bc 39 e7 b1 bb bf 02 7f 3c 73 09 ad 3c
       -0.015537132 -0.005429175 0.01556462 0.02112267
000390 0a 9c 9a 3a 33 e9 0e bd 37 f5 ae 3b 5b 4c 2e 3d
       0.0011795771 -0.034890365 0.0053392905 0.042553287
0003a0 b0 2c 16 3d 77 3d 41 bd b7 c0 ab bc 39 8d d6 3c
       0.03666371 -0.047177758 -0.020965917 0.026190387
0003b0 2d 7e e4 3c 54 72 fa bc a8 11 5d 3a ba a1 42 3c
       0.027892197 -0.030572094 0.0008433112 0.011879379
0003c0 12 13 7e bc 4b 09 8d 3c 98 ea 92 bb 5b 15 a4 bb
       -0.015507476 0.017216345 -0.004483532 -0.0050074286
0003d0 22 c2 fc 3c c4 59 3a bd f8 cd 83 ba 6c 4b f3 ba
       0.030854288 -0.045495763 -0.001005589 -0.0018561906
0003e0 0e 8f 5d bc c4 fd 8d bb 93 76 22 bd d9 b3 85 bc
       -0.013522876 -0.0043332297 -0.039663862 -0.01632111
0003f0 c7 e5 20 3a c1 04 00 3c e1 25 cd bc a5 7b be ba
       0.0006137755 0.007813633 -0.025042476 -0.0014532699

disc.0.0.bias f4 [16]
000000 50 7d 4c 3d e5 fe fb 3c 91 81 06 be 8a 7c 7a bd
       0.049924195 0.030761192 -0.13135363 -0.061153926
000010 b0 f5 25 3d e9 39 26 be 9e 2b 36 be 37 63 8c bc
       0.04051751 -0.16233028 -0.17790076 -0.017137153
000020 13 af 70 3e c0 65 6b be 2b bd 5d be 18 f2 45 3e
       0.23504286 -0.22988033 -0.21654193 0.19330633
000030 a9 22 06 bd eb 9d 01 3d b5 6f a1 3d 2b 2e b8 bc
       -0.0327479 0.031644743 0.078826346 -0.022482952

disc.0.1.weight f4 [16]
000000 35 ba 25 3d 30 6c 33 3d 3f 91 81 3c ba ac 71 3d
       0.040460784 0.043804348 0.015816329 0.059002616
000010 88 0b 23 3d d3 a7 3c bd 8c 36 43 3d 11 0d 32 bd
       0.03980592 -0.046058487 0.04765944 -0.043469492
000020 14 b3 b2 3d 10 18 bc 3d d2 97 29 bd f2 c0 1c 3d
       0.08725563 0.09184277 -0.041404553 0.038269944
000030 78 38 8a bd b2 37 71 3d 4f 92 0e bd e0 70 27 bd
       -0.06749052 0.058891006 -0.0348075 -0.04087913

disc.0.1.bias f4 [16]
000000 a0 56 3d bd 49 17 07 bd 17 70 72 3d e2 99 c9 bc
       -0.04622519 -0.03298119 0.05918893 -0.02460951
000010 61 fd 20 bd 45 ee 47 bd 24 3d 28 bc 03 57 01 be
       -0.03930414 -0.048811216 -0.010268483 -0.12630849
000020 5d db de ba d2 02 83 3c f3 7d 7b bc 6d f8 0f bd
       -0.0017002631 0.015992556 -0.015349853 -0.035149027
000030 99 1b a5 bc ec 47 43 bd 3a 51 4d bd 6e b5 16 bc
       -0.020154761 -0.047676012 -0.05012629 -0.00919853

disc.0.1.running_mean f4 [16]
000000 00 8a 5c 3c 28 02 ae be ae d6 e2 bd cd d1 32 3c
       0.013460636 -0.3398602 -0.11076103 0.010914278
000010 c1 cb d2 bc 8e e6 4f be 34 c5 7b be 01 3e 93 3c
       -0.025731923 -0.20302793 -0.24586946 0.017973902
000020 1e 60 07 3f a3 19 ba 3d c0 c5 58 be 50 c1 0b 3e
       0.5288104 0.09086921 -0.21169186 0.13647962
000030 b2 50 80 bd 8a 99 d0 3c 7e 0b 55 3d 8b 68 75 3d
       -0.062653914 0.025463838 0.052012913 0.059914153

disc.0.1.running_var f4 [16]
000000 b3 83 71 3a 04 a0 85 3d a1 c3 8c 3b 6f fb a8 3c
       0.0009213045 0.06524661 0.0042957817 0.020627705
000010 a9 19 8e 3b 8f 2e bc 3b 8e bd 7e 3c 8d b3 ab 3a
       0.004336555 0.005742855 0.015548123 0.0013099775
000020 2a b8 56 3d b4 29 80 3d 96 94 4a 3c e4 64 ea 3b
       0.052421726 0.06257954 0.012364527 0.0071531404
000030 b9 a9 d6 3b c4 46 da 37 88 45 15 3b cf 54 8b 3b
       0.0065509942 2.6020578e-05 0.002277704 0.0042520533

disc.1.0.weight f4 [32, 16, 4, 4]
000000 6d e4 f4 3c 6c 21 98 3c b4 14 08 bd 49 3d 8a bc
       0.029894078 0.018570624 -0.03322287 -0.016874926
000010 08 58 cb bd cc b8 ce bc da 75 a1 bd 37 68 24 bd
       -0.099289 -0.025234602 -0.078838065 -0.04013845
000020 2d a0 15 bd c8 4d 61 3c ed e1 c1 bb f2 d2 1c bd
       -0.03652971 0.013751455 -0.005916825 -0.03828711
000030 8f 41 9d 3c 94 c7 56 3d 1d 6d 24 bd 0e 74 12 bc
       0.0191963 0.052436426 -0.04014312 -0.008938802
000040 79 96 c3 3d d4 0b 0e 3d 34 50 21 3c cf a0 0d bc
       0.09550185 0.03467925 0.009845782 -0.008644297
000050 e0 a4 ee ba 8f 2d b3 3c 5a 43 02 bc 13 49 a5 3c
       -0.0018207096 0.02187231 -0.007950628 0.020176446
000060 1d c8 84 bd fd 4c 86 3c 89 b2 f0 3a 88 44 35 bb
       -0.06483481 0.016394133 0.0018363754 -0.0027659256
000070 d7 27 a9 3d 8c 63 1b 3d e1 2f a6 bc 17 33 0b 3c
       0.08259552 0.037936732 -0.020286502 0.0084960675
000080 46 fa fd 3c 76 34 2f 3d d1 c3 b8 bc 3f db 2e bd
       0.031003129 0.04277464 -0.02255431 -0.042689558
000090 83 75 58 bd 1d 39 38 3b eb 71 83 bc 65 a9 77 bd
       -0.052846443 0.0028110214 -0.016045531 -0.06046428
0000a0 63 22 f5 3b 25 01 84 3c c9 3a 23 bd 88 3d 05 3d
       0.007480906 0.016113827 -0.039850984 0.032529384
0000b0 26 69 99 3d f6 33 55 bd 43 29 03 3d ce b0 ad 3d
       0.074907586 -0.052051507 0.032021772 0.084809884
0000c0 a2 ae df bd 72 e8 e1 bb cf 67 4c bd 4d 80 a7 bd
       -0.109219804 -0.0068941647 -0.049903687 -0.08178768
0000d0 93 06 ca 3c f4 0e 44 bd 38 d1 f2 bc 31 18 f4 3b
       0.024661338 -0.047865823 -0.029640779 0.007449173
0000e0 fd 81 ce 3b 77 13 71 bd b8 76 80 bc ca 4e 65 bc
       0.006302117 -0.058856454 -0.01568161 -0.013995836
0000f0 0c af dc bc 6a 14 44 bd d1 fd 4d bd ed fa 7e 3d
       -0.026938938 -0.04787103 -0.050290886 0.06225102
000100 f4 c1 b5 bc 73 16 e9 3c a6 1e bf bc 9b de 9b bd
       -0.02218721 0.028453087 -0.023330044 -0.07610818
000110 fb d9 a9 bd b1 3f 83 bb 4f b0 85 bd f2 99 52 3b
       -0.082935296 -0.0040053953 -0.06527769 0.0032135216
000120 ea a0 19 bd 27 1c ec bc 52 79 ef 3a 3f ed 06 3d
       -0.037506975 -0.028822018 0.0018270409 0.0329411
000130 4d 40 ac bc 3b c8 47 3c 13 c4 a6 bb ee e2 03 3d
       -0.021026755 0.012193735 -0.005089292 0.03219884
000140 b8 fe 9f bd d7 bd 8d bd b7 8f d1 3b b2 94 59 b8
       -0.078122556 -0.06920975 0.006395306 -5.1875315e-05
000150 63 4f 8d 3c 60 20 04 bd bc b8 2b 3c 06 56 36 bd
       0.017249769 -0.032257438 0.010481056 -0.044515632
000160 7f 01 1f bc d1 14 82 3c ea 78 fd 3c c1 c8 54 3c
       -0.009704947 0.015879067 0.030941445 0.012987317
000170 c3 7a 8a bc ad 52 00 3d d9 cd 68 bc 0b 38 01 bb
       -0.01690424 0.031328846 -0.014209234 -0.0019717242
000180 ca 6d b3 bc 9d aa 1c 3d 36 ee 05 3c ec ab db 39
       -0.021902937 0.038248647 0.00817447 0.00041899027
000190 ed 43 b2 3d 4a be bd 3d ef a0 a6 bd 79 e1 6d bd
       0.08704362 0.092648104 -0.081361644 -0.058076356
0001a0 ee 62 bf 3d d5 c2 5b 3b b3 71 03 bd 51 38 0f 3c
       0.09345041 0.0033532877 -0.032090854 0.008741454
0001b0 e0 9a 47 3d 57 71 1f 3d b2 6a 95 3c aa c7 05 3d
       0.048731685 0.03892645 0.018239353 0.032661118
0001c0 ff d9 0f 3d ac 66 90 3c 2d bd 47 bd dc ec 99 bd
       0.035120007 0.017627083 -0.048764396 -0.075158805
0001d0 9f 88 a6 bb 55 7a 33 3d 96 bc 90 3c 30 85 e4 3c
       -0.0050822045 0.043817837 0.01766805 0.02789554
0001e0 4d 10 85 bd ed 52 e2 b9 22 e2 85 3d e1 01 4d 3d
       -0.0649725 -0.00043167864 0.06537272 0.05005062
0001f0 86 28 7a bc c4 f5 1c 3d 5a 22 52 bc db 45 b6 3c
       -0.015268451 0.038320318 -0.012825573 0.022250107
000200 75 82 b3 3c e1 77 72 3c 04 22 e1 bc 9e 62 00 3d
       0.021912793 0.014799089 -0.02748204 0.03134405
000210 3c ef 86 3d 86 3c 9f bc 56 1d 60 bd 7b c5 ab bc
       0.06588599 -0.01943804 -0.054715477 -0.02096819
000220 c5 5c 40 bd de ae 11 bd 28 88 27 bd 0e ea a4 bd
       -0.046963472 -0.035567157 -0.040901333 -0.08052455
000230 ef 09 27 bd 57 35 ea bc 94 f9 b8 bd 7c 6c b4 bd
       -0.040780958 -0.028589888 -0.09031978 -0.08809754
000240 1c fb a4 3c 34 0f ae 3c e6 17 0c 3d cd d3 83 3d
       0.02013927 0.021247484 0.03420248 0.06436882
000250 ae 60 dc bb 75 6c b8 3d fd c4 1a 3d 42 92 0f bc
       -0.0067253923 0.090050615 0.03778552 -0.008762898
000260 97 85 49 3d 43 79 93 bd b6 2f 24 bd a1 f4 8b bd
       0.049199667 -0.07200863 -0.040084563 -0.06833769
000270 6a 2e 41 3b d6 e8 5c bd 6b 4d ef 3b 90 b5 5c bd
       0.0029477128 -0.053932987 0.00730293 -0.05388409
000280 a4 2d db bc 5e 09 ce ba fe 6f 2d bd 3e 47 0b bd
       -0.026755162 -0.0015719344 -0.042343132 -0.03400349
000290 a4 1c 94 bd 64 45 c9 bc 72 20 99 bd 28 04 88 bc
       -0.07232025 -0.02456922 -0.074768916 -0.016603544
0002a0 c6 40 b4 3c ad 1c 1d 3d 00 a1 9e bc 6b 47 23 bd
       0.022003543 0.038357425 -0.01936388 -0.03986303
0002b0 b9 9f 99 3d ad ca 4d 3d f2 e3 16 3d ea 62 39 3b
       0.07501168 0.050242115 0.03683848 0.0028287717
0002c0 43 2a 4c 3d d7 4a c9 3d a5 a1 2d 3d d2 ea 01 bc
       0.04984499 0.09828728 0.042390484 -0.007929521
0002d0 e5 74 8b 3c 78 6b c8 3c ea eb 99 3d 89 bb 4e 3d
       0.017023513 0.024465308 0.075157 0.050471816
0002e0 c8 23 bd 3b 44 bd b4 3d 05 da a6 3d d9 e8 a9 3c
       0.0057720877 0.08825162 0.08147053 0.020740913
0002f0 d9 91 b2 bc f7 9c 8e 3d c3 51 6d 3c 88 ca 12 3d
       -0.021798061 0.069635324 0.014484826 0.03583768
000300 97 4a 1e bd 91 70 6d 3a eb 0d 30 3d de 76 7d bc
       -0.038645353 0.0009057606 0.042982023 -0.015470235
000310 c5 cf 20 bd be 39 da bc 13 cd 02 3d f0 21 85 3d
       -0.039260644 -0.026638862 0.031933855 0.06500614
000320 70 63 01 bd 03 71 b5 3c e9 bf df 3c 55 9a 9e 3b
       -0.03158897 0.022148615 0.02731319 0.004840175
000330 c4 58 a1 bb 71 da 48 3c 4a 5b 50 3d 18 a7 ef 3c
       -0.0049239118 0.012259112 0.05086831 0.029254481
000340 98 34 2c bd 17 b2 7c bd ec 3d 98 bc 68 d1 99 bd
       -0.042042345 -0.061693277 -0.018584214 -0.07510644
000350 60 86 10 bd 56 8c 77 bd 76 e7 9e 3b 5e 9c 4d bd
       -0.0352844 -0.06043657 0.0048493696 -0.05019795
000360 f7 04 89 bd 7f bd 05 bd 03 4f 99 bc 0d ee 64 3c
       -0.066904 -0.03265142 -0.018714434 0.013972771
000370 2f 39 c9 bc a8 16 48 bd d4 e8 db bb bb 70 9b 3c
       -0.0245634 -0.04884973 -0.006711105 0.018974653
000380 a9 c1 97 bb 62 72 fd bc 87 27 30 3d 77 ce a7 3b
       -0.0046312404 -0.030938331 0.043006446 0.005121048
000390 e8 bc c0 3d 3a dd fb 3b 64 f6 d5 bc de ad f9 3b
       0.09411031 0.0076862844 -0.026118465 0.0076196035
0003a0 dc 9f 5d 3d 9b 4c cc ba 85 ef c5 3b aa 69 56 3d
       0.054107532 -0.0015586795 0.006040516 0.052346863
0003b0 a3 c3 0e 3c c4 87 e8 bd 20 e0 c1 3b 8f f1 a9 bb
       0.008713636 -0.1135402 0.0059166104 -0.0051862667
0003c0 18 5b 60 bd 0d 36 a7 bd 04 e9 65 bd 85 bd 80 bd
       -0.054774374 -0.08164606 -0.056130424 -0.06286148
0003d0 8a 7b 5c bd 22 6d 32 bd 83 fe 53 bd cb 8a b7 bc
       -0.053828754 -0.04356111 -0.051756393 -0.022405049
0003e0 64 d9 3c 3b fb 49 32 bd a9 b2 a9 bc e1 d2 84 3d
       0.0028816098 -0.043527585 -0.020715075 0.064855345
0003f0 5e 94 e2 3b c9 69 da bc 58 a5 38 3d c8 aa a0 3d
       0.0069146594 -0.02666177 0.04507956 0.07845074

disc.1.0.bias f4 [32]
000000 be d2 93 3c 54 27 b1 3c d5 0f f3 bc 2a 69 d8 3c
       0.018044826 0.021625198 -0.029670635 0.026417334
000010 50 c0 d4 3b 3a 20 b4 bb d7 4c 1a 3d 8c 90 db bc
       0.006492652 -0.005497006 0.037670936 -0.026802324
000020 22 0a a8 bc 2e 4b 19 3d 11 ca 3f bd 51 f3 b9 3d
       -0.020512644 0.037425213 -0.046823565 0.09079612
000030 c3 b9 5d bb 41 6a ac bb a1 e8 13 3d 64 93 13 bc
       -0.0033832646 -0.00526169 0.036110524 -0.009007309
000040 e8 12 a0 bb e1 33 8f 3c cb a7 58 3c 45 79 53 bc
       -0.0048850663 0.017480792 0.013223599 -0.012907331
000050 3e 70 e4 bb 56 96 48 bd ac 54 06 3c e0 4d f3 3c
       -0.006971388 -0.048971497 0.008198898 0.02970022
000060 97 0a 94 3c 91 01 45 3d 62 e3 af 3b 2a 80 35 bc
       0.018071456 0.048097197 0.0053676823 -0.01107792
000070 ad 22 23 bd de 09 e0 bb ec 7c ec 3c 2d 07 a7 bc
       -0.03982799 -0.0068371138 0.028868161 -0.020389164

disc.1.1.weight f4 [32]
000000 73 6f 16 3e e2 dc 56 3e fd b1 6f 3e 27 28 2d be
       0.14690952 0.20982698 0.23407741 -0.16909848
000010 2f ae 33 3e 87 e0 12 3e 12 33 27 be 57 53 4a 3e
       0.17546915 0.14343463 -0.16328076 0.19758354
000020 cf 79 1d 3e c6 dd 7d be 93 65 52 be 98 cc 36 be
       0.15378498 -0.24791631 -0.2054656 -0.17851484
000030 bc 97 0d 3e 1c a9 1f 3e 25 55 1e 3e 68 4f 33 3e
       0.13827413 0.15591854 0.15462168 0.1751076
000040 e9 28 29 be 08 9b 3e 3e d1 e0 48 3e 76 e8 68 be
       -0.16519512 0.18613827 0.1961701 -0.22744927
000050 1b 59 f7 3d d3 cf 55 3e 81 5f 29 be a2 02 12 3e
       0.120775424 0.2088006 -0.16540338 0.14258817
000060 81 72 22 be 05 d6 b8 be 1c 63 0b be c7 41 6a be
       -0.15863992 -0.36100784 -0.13612026 -0.22876655
000070 2b 2e 98 3e ec 1a 2b 3e 8a 65 89 3e 1d d6 45 3e
       0.29722723 0.16709489 0.2683528 0.19319959

disc.1.1.bias f4 [32]
000000 e8 f8 12 3d a7 72 b4 3c 53 21 1e be b8 36 0c 3d
       0.035881907 0.022027327 -0.154424 0.03423187
000010 69 56 63 3e bb 61 e1 3c 95 81 8f 3d 9d 78 92 3b
       0.22200932 0.027512422 0.07007138 0.0044699446
000020 a8 d4 32 3c 8c 09 bc 3d 94 50 bd bb ea f7 a3 bd
       0.010914959 0.091815084 -0.005777428 -0.0800627
000030 87 22 c2 bd dd ac f5 3c cc f0 f7 3d 2b 5f 19 bd
       -0.09479242 0.029989654 0.12106475 -0.037444275
000040 ff 6b e5 3d f6 47 cf 3d 60 24 89 3e 1e c5 e3 3d
       0.11202239 0.10121147 0.26785564 0.111215815
000050 8d db 24 bd 81 76 29 3e 91 88 0a bd f2 b1 a2 bc
       -0.040248442 0.16549112 -0.033821646 -0.019860242
000060 23 17 bd 3d 08 30 06 be 6d d2 69 3d f3 b2 8f 3d
       0.092329286 -0.1310426 0.057085443 0.07016554
000070 46 ee 82 3d 2f 0c 4a 3d ba 4d 19 3d 1e a0 8c bc
       0.06393103 0.049328025 0.03742764 -0.017166194

disc.1.1.running_mean f4 [32]
000000 9c 00 43 3c db 75 07 3d 51 a9 5f bc d9 2c 5d 3d
       0.011902001 0.03307138 -0.013651208 0.05399785
000010 51 c2 63 bb d7 61 e8 bc 3b 8f bc 3c 84 47 91 bc
       -0.0034753273 -0.028366966 0.023017516 -0.017734297
000020 b2 11 1d bc 5e 2f 35 3d 91 83 82 bd 1c 5a 5b 3d
       -0.009586738 0.044234626 -0.063727506 0.053552732
000030 8b bc 4d 3b e9 42 00 bc a1 66 bc 3c c7 1b c5 3c
       0.0031392898 -0.007828453 0.022998156 0.024061097
000040 a0 a4 b0 3c 78 b7 d0 3b 51 f1 8a bc 94 f0 49 ba
       0.021562874 0.0063695274 -0.016960772 -0.00077033904
000050 a6 70 a5 bc bd c2 ce bd 44 e2 44 3c 47 b6 65 3d
       -0.020195317 -0.10095737 0.012016837 0.056082036
000060 7c bb ca 3c 22 d9 1b 3d 98 82 65 3b 09 69 4c 3b
       0.024747603 0.03804887 0.0035020467 0.0031190536
000070 7b 37 1e 3d f7 48 64 bc fa ab 15 3d bc e5 0a bd
       0.03862713 -0.013933412 0.036540963 -0.033910498

disc.1.1.running_var f4 [32]
000000 ef 9a 92 3a 60 c1 8b 3a de b6 84 38 0c d5 56 3a
       0.001118509 0.0010662489 6.328312e-05 0.00081951986
000010 48 37 40 39 c0 ac 5b 3a d2 78 12 3a f1 ed a2 3a
       0.00018331141 0.0008379929 0.00055874616 0.0012430531
000020 eb 72 8a 3a 1d bf d6 39 51 ba c5 3a d7 13 4b 3a
       0.0010562813 0.0004095965 0.0015085434 0.0007746792
000030 30 59 1a 3a 90 d3 2b 3a fa e5 ad 3a 92 d3 a2 3a
       0.0005887924 0.00065546576 0.0013267391 0.0012422672
000040 51 68 8d 3a b8 0a b2 39 2e 18 eb 39 a6 81 54 3a
       0.0010788535 0.00033958792 0.00044840708 0.00081064773
000050 61 3f 04 3a 71 e1 fa 3a 2a 5a 2d 3a 9a 96 87 3a
       0.00050448446 0.0019140673 0.0006612862 0.0010344565
000060 cf 03 bb 3a 13 63 52 3a 13 48 25 3a 86 75 1e 3a
       0.0014268103 0.00080256275 0.00063049904 0.0006044734
000070 c3 67 17 3b 0c 91 da 3a a7 99 d4 3a f8 45 ab 3a
       0.0023102618 0.0016675307 0.0016220108 0.0013067117

disc.2.0.weight f4 [1, 32, 4, 4]
000000 d4 59 4f 3e 31 4c 47 3d 2f f4 b1 3d bf d5 c4 b9
       0.2024911 0.048656646 0.086891524 -0.00037543286
000010 71 d8 08 bd f9 0d b8 bd 46 32 a1 bd be f8 bd bd
       -0.03340954 -0.0898704 -0.07870917 -0.092759594
000020 38 48 99 bd dc 59 dd bd d8 61 5b bd 59 f0 4a be
       -0.07484478 -0.10808155 -0.053560108 -0.19818248
000030 c8 82 9a 3c 03 ad a5 bd 2e cb 89 bc c5 89 73 be
       0.01886119 -0.0808964 -0.016820516 -0.23783024
000040 ff 9c 85 3e 17 62 b7 3b 0a 03 77 bd a2 25 20 bd
       0.2609634 0.00559641 -0.060305633 -0.03909839
000050 9b 41 43 3e fb 89 6b be b2 0f a0 bd e4 34 91 3d
       0.19067995 -0.23001854 -0.07815494 0.07090166
000060 0c c2 28 3e 45 69 e8 bd 4b 6f cc bd 42 20 42 bd
       0.16480273 -0.113482036 -0.09982165 -0.047394045
000070 23 a7 d7 3d 5d 3b 0e bd c3 b4 1e bd 1e 12 02 3e
       0.10529926 -0.034724582 -0.038746607 0.12702224
000080 ce 72 7c 3e d0 b0 e2 3d a2 47 ad 3c 1d a3 54 bd
       0.2465317 0.110688806 0.021152321 -0.05191337
000090 aa 48 fd 3d 3f ef 82 bd 01 7f 10 be 38 25 41 be
       0.12367375 -0.06393289 -0.14110948 -0.18861854
0000a0 03 4e 85 3d b8 01 06 be f7 96 a3 be 8f 93 8c be
       0.0650902 -0.13086593 -0.31951115 -0.27456328
0000b0 aa ac 69 3d 76 ee 9d bd ae 20 88 be 9d 56 28 be
       0.05704943 -0.077114984 -0.26587433 -0.1643929
0000c0 24 cd b4 3e f5 6b 3e 3e 28 bd 39 3d fe 43 ad 3d
       0.3531276 0.1859587 0.04534641 0.08460234
0000d0 44 72 1a 3e 14 64 5a 3b 50 04 53 be f2 1d 41 bd
       0.15082651 0.0033323811 -0.20607114 -0.0471477
0000e0 43 46 89 3e 93 53 4a bd 15 c4 2f bd 43 4c 0b 3e
       0.26811418 -0.04939611 -0.042911608 0.1360331
0000f0 a4 5b 7d 3d 4b 1e 3d bd aa 95 cb 3c ae 14 04 3e
       0.061854973 -0.046171468 0.024851639 0.12898514
000100 f0 d9 fd be e5 10 92 be a7 fd 08 be dd 4b bc bc
       -0.49580336 -0.28528515 -0.1337801 -0.022985393
000110 c2 9f af be 77 df d7 bd d2 be f5 3c e4 23 b5 3d
       -0.34301573 -0.105406694 0.029998217 0.08844736
000120 61 f1 70 be 6a 1d 86 bd 26 7b fc bc 92 89 16 3d
       -0.23529579 -0.06548579 -0.03082044 0.03675229
000130 e0 55 1f be 3f 6c 7b bd c3 9e 89 3c 14 56 9d 3d
       -0.15560102 -0.06138253 0.016799336 0.07682434
000140 2f a0 d1 3e 42 e7 bb 3e 23 dc 66 3e 95 80 38 3e
       0.40942523 0.36699873 0.22544913 0.180178
000150 bf a8 7c 3e 1f 33 4f 3e f6 c8 28 3d 64 d1 69 bd
       0.24673747 0.20234345 0.041207276 -0.057084456
000160 ef 9c 45 3e f2 51 32 3e f4 cb 15 3e 02 e0 35 3e
       0.19298147 0.17414072 0.14628583 0.17761233
000170 bf 59 7a 3e 29 b9 30 3e 43 91 4b 3e be 76 46 3e
       0.24448298 0.17258133 0.19879632 0.19381234
000180 d3 af 66 be c8 40 21 be b1 65 dc bd 71 db 05 be
       -0.22528009 -0.15747368 -0.107615836 -0.13071992
000190 b6 6a 46 be 1d 5f 4b bd 83 ed 05 3e 34 cf a5 bd
       -0.19376644 -0.049651254 0.13078885 -0.080961615
0001a0 c0 20 d6 bd 30 18 ec bd 7d 32 82 3c 71 fd 29 bd
       -0.10455465 -0.11528051 0.015893215 -0.041501466
0001b0 62 9c 6a 3c 62 3f 1e 3d 95 a3 3e 3b 1d e5 84 3c
       0.014319511 0.038634665 0.0029089202 0.016222531
0001c0 72 c8 1c 3d e8 0b 9f bd 37 5c 40 bd 61 e1 02 bc
       0.038277097 -0.07765943 -0.046962943 -0.007988305
0001d0 39 e5 2c 3d 30 29 96 bc 3d 58 07 3c 9b ac ce bd
       0.04221079 -0.018330187 0.008260784 -0.10091516
0001e0 92 e8 1c bd 85 f2 05 be 4c 30 15 be aa 6e 50 be
       -0.038307734 -0.13080795 -0.14569205 -0.20354715
0001f0 b1 00 07 bd 21 6e fb bd e7 ac 4b be a4 04 09 be
       -0.032959644 -0.12276865 -0.19890176 -0.13380677
000200 81 97 85 3e 36 02 9c 3c 19 fe 39 bd 64 7e 4d bd
       0.2609215 0.019044023 -0.045408342 -0.050169364
000210 0a e8 8d 3e 3f 82 bf 3a db 7c 22 be f6 7d e7 bd
       0.27716094 0.001461096 -0.15867941 -0.11303322
000220 db aa 25 3e 8b 8b 73 bd c6 86 78 be ab 09 7e bd
       0.16178457 -0.05945925 -0.24270162 -0.06202094
000230 37 12 4b 3e 38 02 94 bc 1e e7 13 be a2 f0 66 bd
       0.19831167 -0.018067464 -0.14443633 -0.05638183
000240 86 59 29 be 4c 6f 29 be 24 ed 94 be 7a 9c 41 be
       -0.16538057 -0.16546363 -0.29087174 -0.18907347
000250 6a 46 65 be a5 e8 21 be 60 56 dd bc 79 d4 ba bc
       -0.22390142 -0.15811403 -0.027018726 -0.022806393
000260 0d a2 13 be 2a 67 33 be 95 23 8c bd 0a f4 4a bc
       -0.14417286 -0.17519823 -0.06842724 -0.012387285
000270 51 ac 8a bd 3f 84 a6 bd e9 30 cc 3b 42 69 36 bc
       -0.06771148 -0.08130693 0.0062314165 -0.011133494
000280 b4 61 5f 3e 52 ff dd 3d 3a 47 9a 3d 13 cf dc 3c
       0.21814615 0.10839714 0.07533117 0.02695421
000290 e6 ae 4b 3e 9d 69 60 3d 41 7b a0 bb 76 d4 5c bc
       0.19890937 0.05478822 -0.0048975055 -0.013478389
0002a0 cd e8 ae 3e 2b 9f f8 3d 03 7b f8 3c ff b0 1f 3d
       0.34161988 0.12139734 0.030332094 0.038987156
0002b0 78 20 45 3e c7 bf 90 ba a0 da b2 bc 4c 18 2f bd
       0.19250667 -0.0011043482 -0.021832764 -0.04274778
0002c0 69 32 a2 3e e4 f4 3c 3e 5d b9 16 3d 9a e5 78 3d
       0.31679085 0.18452793 0.03679787 0.06076584
0002d0 7b 71 41 3e 7e 16 64 3d e6 9f 98 be 92 64 83 bd
       0.18890946 0.055685513 -0.29809493 -0.06415667
0002e0 bb d0 16 3e 75 b1 a0 3c 81 9f 93 bd 1d db 02 be
       0.14728062 0.019615868 -0.07208157 -0.12778898
0002f0 26 eb 72 3d bf 34 83 3c 7c 22 43 be 73 4a 45 3d
       0.059306286 0.016016362 -0.19056123 0.048166703
000300 87 c6 a3 3d 2f f2 1e 3e 34 94 63 3d 2e d6 a9 3c
       0.079968505 0.15522073 0.05556126 0.020732012
000310 7f 5f 1c 3e 25 0f 67 be 4c e7 9e bd 1f 60 28 be
       0.15270804 -0.22564371 -0.0775896 -0.16442917
000320 1c 49 15 3e b5 bd ee bc 6c 3c 86 bd 1c 3c d6 bb
       0.1457867 -0.029143194 -0.06554493 -0.0065379273
000330 1f 9a 0c 3e 8a e0 fc 3c 89 65 82 be 79 23 a3 3d
       0.13730668 0.030868787 -0.2546809 0.0796575
000340 9b 4d b5 3e a8 97 22 3e a1 9c db 3d aa e4 68 3c
       0.3541077 0.15878165 0.10723234 0.014214674
000350 77 a2 14 3e 9f 8d 1f 3d 0d 1f 98 bc 17 3c ac 3d
       0.145151 0.03895342 -0.018569494 0.08409899
000360 ae 2c 46 3e 1f 9e fe bd e9 d2 1c 3e 65 1c 21 3e
       0.19352981 -0.12432503 0.15314831 0.15733488
000370 56 7b 77 3d c9 e3 56 bd fd 3d cb bd 7d b0 eb 3c
       0.060420357 -0.052463327 -0.09923933 0.02877068
000380 6d f2 a9 3e 11 81 5e 3c 65 dc 4e be bd 90 3e be
       0.3319277 0.0135805765 -0.20201261 -0.18609901
000390 b4 2c 5e 3e 70 ab b7 bd f4 e3 05 be 6c 04 0a bc
       0.2169674 -0.08968246 -0.13075238 -0.008423906
0003a0 fa 50 a9 3d 56 f0 cc bd 28 d8 16 be 9f fd e2 bd
       0.08267398 -0.10006778 -0.14730895 -0.11083531
0003b0 93 1f dc 3d b8 64 1b bd 26 22 52 be ba 56 c5 bd
       0.1074821 -0.03793785 -0.20520839 -0.096356824
0003c0 76 ef 5c 3e 5d f0 5e 3e 83 b8 42 3d 4e 7a c9 bc
       0.21575722 0.21771379 0.047539245 -0.024594452
0003d0 3d 10 9a 3d f3 7b e8 bc 01 1f 2d be 7b 76 e2 bd
       0.075226285 -0.028379416 -0.16906358 -0.110577546
0003e0 ca eb dd bc 95 27 31 3d 3e e1 c8 bd 3b bc df bd
       -0.027089972 0.04325064 -0.098085865 -0.10924574
0003f0 1d 40 69 3d 1f 4e 69 3d 7d 6f 04 3e d7 7c 8b be
       0.05694591 0.056959268 0.12933154 -0.27243683
